checkpoint.pth (torch_old, 29658 bytes, 8 tensors)

fc1.weight f4 [64, 37]
00000000: a478 d6bb f698 e13d a0b2 08be 7d51 5cbe
00000010: 4448 b4bd 2cd5 953d a629 9fbe 0086 363e
00000020: 5177 f3bd 2429 743d c429 0dbc 206c 65be
00000030: f942 ebbe 3544 013e 6d50 a4be a980 f5bc
00000040: 683f e9bd fb40 aa3e ef5d ecbd b49b 483d
00000050: f779 993d aefe 44be 52ac fcbc 2510 7a3e
00000060: f751 81be a458 243e aef1 2abd 34ce cabe
00000070: ae60 13bd 95fa 33be 8ac1 3ebc 2d9f d9ba
00000080: e401 54be 29cd adbd fcae 98be f0f6 58bd
00000090: 6386 06bd 7ce5 d43d 0883 da3d a117 2e3e
000000a0: 5fc1 eb3d 929e 2dbe bb30 873e dd67 1fbf
000000b0: 96cf 07bf 21d3 dfbe 7d60 c5bf a375 cf3d
000000c0: fe46 79bd ac15 6d3d 337f d33d 4062 fb3d
000000d0: f153 6c3d 0762 883c 0e5c d73d c08b 2e3e
000000e0: 25c1 633e 89b6 68bd 702a acbd ed9e b0bd
000000f0: d10e a83c b5f5 f73c ea87 0b3c b93c b73c
00000100: 8119 733d a147 51bd 254c 2bbe 45d3 f83c
00000110: e3ee c73d 3f26 3b3e cccb e53d ee57 5c3e
00000120: fa09 97bc c333 a33a 5c62 213d 216f 713e
00000130: 6292 143e 78ed 313d 8ae0 c3bb 2a86 12bf
00000140: 4700 463e a6ac b33e 3cf9 ef3c aa9f 31bf
00000150: b9fb 4cbd 89d6 c2bc 918b 933d b45e 6d3d
00000160: 914a 4f3d 8c4a fabc 4adc 973d e758 643e
00000170: a2bb 8c3d de66 88bc 8a0b 8ebc 047a 14bd
00000180: 69be be3d 453e 503d 77f4 003d e080 15be
00000190: 61c4 793e 5bef 4b3e a0ae 953c 019c 2cbd
000001a0: 7998 94be 5125 563d 017a b73c ee8b afbc
000001b0: 6e3d c7bc d1a6 c9bb 9965 a23b 6591 68be
000001c0: dd23 48be e1f3 993e fe73 d5bc 6d6d b6bf
000001d0: c50b 07be 83d4 0f3d 810f 4b3d 278c adbc
000001e0: 9a01 b4be c155 b8bd 3998 5e3d a882 2bbe
000001f0: 79b4 a2be acda 01be c2ff c9be af57 8ebe
00000200: b28c 003e 0f81 f2be fa96 aebf 2c44 91be
00000210: b219 8d3c d857 a53d 9ca9 35bd ec6f a23d
00000220: 8079 afbe 7a1d 02be 9826 3c3e 0cfc babd
00000230: d794 d4be be58 b43d b4d9 353e cf61 73bd
00000240: 1230 cfbe eddd 093d 4845 503e aacf 5cbc
00000250: 9391 143d fe19 67be 78b8 3fbe 7ff2 85be
00000260: 44f4 10be 5dde ce3d 2dcf 363e ac1a d9bd
00000270: bd1a bfbd a426 44bd 80a1 f7bc 6cc4 05be
00000280: 512d d03c c64e 22bd bb42 153d 2647 3fbe
00000290: 2c04 b0bd c40f c03d d238 633d bfd4 cc3d
000002a0: 9cb9 f3bb 3402 d1bd e3f2 143e 182d 6ebe
000002b0: c13a dd3d aaa5 de3d 98dd 36be 4571 ddbb
000002c0: 935f ed3d a484 c53e ae74 5e3e d859 bcbe
000002d0: df7c eebd 18a3 d33d edde 30bc 8188 1e3d
000002e0: 3b09 d03b 31c8 353d 8805 103d 9517 9abc
000002f0: 6dc3 cb3d 2b69 493e e9b7 993e ca93 983e
00000300: 4d66 9cbe 2fc6 94be b3a3 8abf d52d 4cbd
00000310: 69d7 abbc 597a 093d ee6d eb3c a634 203e
00000320: 69e3 683d b9e9 593d 908d 49bd ac0d a83d
00000330: 0180 ba3b 31bb f93d 9a46 bb3d 218b cd3d
00000340: 96e3 243e 802c 1e3e 9868 313e 9fe9 d3bd
00000350: 8317 9d3c eb3e dabc dc41 f2bd 76f6 f33d
00000360: 4078 2abd 10df 13be 22af 203e 40c2 0bbe
00000370: a9bb 143d 30c0 cf3b d78b c13d cc00 65be
00000380: 7608 12be 7c69 e23c dccf a1bd 813e 10bd
00000390: 5729 b2bd c151 62be 1c74 1c3e 4c56 d83c
000003a0: 0ac1 d4bd a63f 073e e146 493d a5e5 a13c
000003b0: 3b66 013e 2d50 cbbd 602b 22be ee5c a93c
000003c0: 7c79 54bd c858 413d aa61 80be bc69 2bbd
000003d0: 6caa 8c3e 86e7 95be 7d32 653d 4592 f13c
000003e0: ca4e 45bd f27d 14be 2031 b6be 2375 debc
000003f0: 5e01 773b bffc 083d b05a 88bd ea47 aabd
-0.006545143 0.11015503 -0.1334939 -0.2151546 -0.08802846 0.0731605 -0.31086463 0.17824554
-0.11887992 0.059609547 -0.008615915 -0.22404528 -0.45949534 0.12623675 -0.3209261 -0.029968577
-0.11389047 0.332527 -0.11541354 0.048976615 0.07493966 -0.19237778 -0.030843887 0.24420221
-0.25257847 0.16049439 -0.04173439 -0.39610445 -0.035980873 -0.17576058 -0.011642823 -0.0016603224
-0.20703846 -0.08486397 -0.29821002 -0.052969873 -0.032843005 0.10395333 0.106695235 0.17001201
0.11511492 -0.16955021 0.26404366 -0.6226786 -0.53051126 -0.43715766 -1.5420071 0.10129859
-0.06085872 0.057881996 0.10326996 0.12274599 0.05769724 0.016648306 0.10515605 0.17045498
0.22241648 -0.056814704 -0.08406532 -0.08624063 0.020514878 0.03026853 0.008516291 0.022367822
0.059350494 -0.0510937 -0.16728266 0.030374179 0.09762361 0.18276308 0.11220512 0.21517918
-0.018437374 0.0012451339 0.039400443 0.23577549 0.14508966 0.04343936 -0.005977695 -0.5723597
0.19336043 0.35092658 0.029293649 -0.69384253 -0.05004475 -0.023783939 0.072043546 0.057951644
0.05060822 -0.030553125 0.07415064 0.22299539 0.068717256 -0.016650613 -0.017339487 -0.036249176
0.093136616 0.050840635 0.03148314 -0.14599943 0.24391319 0.19915526 0.018271744 -0.042140964
-0.29022577 0.05228168 0.022397043 -0.021429028 -0.024321284 -0.0061539193 0.004955959 -0.22711714
-0.19544931 0.30068877 -0.026056286 -1.4252144 -0.13188083 0.035114776 0.049575333 -0.021184994
-0.35157472 -0.09000731 0.05434439 -0.1674906 -0.31778315 -0.12681073 -0.3945294 -0.27801272
0.12553671 -0.4736409 -1.3639824 -0.28372324 0.017224167 0.080733955 -0.044351205 0.07931504
-0.34272385 -0.12706557 0.18374097 -0.091301054 -0.41519806 0.08805989 0.17758828 -0.05941945
-0.40466362 0.03365891 0.20338929 -0.013477245 0.036271643 -0.22568509 -0.18722713 -0.26161572
-0.1415568 0.10101006 0.17852469 -0.106007904 -0.09331272 -0.047888413 -0.030228376 -0.1306321
0.025412234 -0.039625905 0.036440592 -0.18679485 -0.08594546 0.09378007 0.05547411 0.100015156
-0.007437898 -0.10205498 0.14545779 -0.2325939 0.10802222 0.10871442 -0.17857969 -0.0067578875
0.11590495 0.3857776 0.21724197 -0.36787295 -0.11644911 0.10333842 -0.010795337 0.0387044
0.0063487566 0.04438037 0.035161525 -0.018810073 0.09949384 0.19669025 0.30023125 0.29800254
-0.305468 -0.29057452 -1.0831207 -0.049848396 -0.020976739 0.033563945 0.028738942 0.15645084
0.0568575 0.05320141 -0.04920727 0.08205733 0.005691529 0.12193907 0.091443256 0.10036302
0.16102442 0.15446663 0.17325056 -0.10347294 0.01917625 -0.02664133 -0.11828968 0.11912243
-0.041618586 -0.1444056 0.15691808 -0.13648319 0.03631178 0.006340049 0.094505005 -0.22363585
-0.1426104 0.02763819 -0.07900974 -0.03521586 -0.08699291 -0.22101499 0.15278667 0.026408337
-0.10388382 0.13207874 0.04913986 0.019762823 0.12636654 -0.09927402 -0.15836859 0.020674195
-0.05187367 0.04720381 -0.25074512 -0.041848883 0.27473772 -0.292782 0.055956353 0.029488692
-0.048170842 -0.1450117 -0.35584354 -0.027155465 0.0037690024 0.033444162 -0.06657922 -0.08314498

fc1.bias f4 [64]
00000000: ea39 a93d 9370 de3c 2af0 9ebd c54f 56bd
00000010: efb2 0d3e fbb5 293d 42cb 0abe e8b0 b83d
00000020: 6612 ac3d 4070 56be 8675 d03d a930 213e
00000030: fc54 ee3d 30ef f93d 2575 1fbe 65ff 52bd
00000040: 13d9 043d 9016 81bd 059a a2bc 76b8 2ebe
00000050: 01fa b3bd aa3a 233d bf08 70bd dc4b 92bd
00000060: 9604 45be 4da4 133e 1084 87bd 0ebd c3bd
00000070: e5bc 243e e235 1c3e c75b 02be 01ed 34be
00000080: 6e5e 363e 8941 a73d bdc7 d5bd 2ac5 283d
00000090: 3d73 30bd df1a 473d 14f1 cabc bf20 31be
000000a0: f042 02be 86c1 99bd e06c b8bd c769 4a3e
000000b0: d6db bd3c e2d1 3dbe 9a6d 903c 4383 f7bd
000000c0: 4d05 26be 9622 e03c 5149 67be e848 a03d
000000d0: 6a2f cdbd ee15 dfbd 4728 cfbd 5648 763d
000000e0: 6fdb 4d3e b606 c1bd 2cee 10be b25b ddbd
000000f0: 6251 373d bcda f63c 52c2 8a3c 27e3 983d
0.08262999 0.027153289 -0.077606514 -0.052322168 0.13837789 0.041433316 -0.13554099 0.09018117
0.08401947 -0.20941257 0.10178666 0.15741219 0.11637303 0.122038245 -0.15572031 -0.051513094
0.03243358 -0.063031316 -0.019848833 -0.17062554 -0.08787919 0.03985087 -0.05860209 -0.07143375
-0.1924003 0.14418145 -0.06616986 -0.09557544 0.16087683 0.1525493 -0.12730323 -0.17668535
0.1780946 0.08166797 -0.10438488 0.041203655 -0.04307865 0.04860961 -0.024773158 -0.17297648
-0.12720847 -0.07507615 -0.09005141 0.19766913 0.023176115 -0.18537095 0.017630387 -0.12085583
-0.1621296 0.027360242 -0.22586562 0.07826406 -0.10018809 -0.10892855 -0.10115104 0.06012758
0.20103239 -0.09425108 -0.14153355 -0.10808505 0.044755347 0.030133598 0.016938362 0.07465201

fc2.weight f4 [64, 64]
00000000: 6cba cfbc 297b 3fbe 8811 113d 5512 963d
00000010: 3255 393d 2317 4c3b 65af 8fbe d7d6 bdbc
00000020: b574 02be 1779 953d 867e cf3e 0270 54be
00000030: ecb4 aa3d 6ab6 5a3c 399d dcba 8003 0abc
00000040: 1a60 5dbe bf0a 1ebd cbd5 d43d dfd1 713c
00000050: 2115 00be dc21 a03d 0031 9e3d bd96 8ebe
00000060: d986 00be 8a4c e23d 2d93 14be 6924 9ebe
00000070: a6ee c53d 5a4a 1c3e 3d87 ab3c 06d9 9a3c
00000080: 5986 e6bc bc54 9cbd 0591 073d e289 12be
00000090: 5ad8 8abe b25e 08be f40e 1d3d d3b4 9abd
000000a0: 959b acbd bddd 393d 7a44 8e3d 4906 56bd
000000b0: 7b29 cd3e 6c94 8abe 9203 db3c d085 4dbd
000000c0: dc97 fabd c3e3 cfbc fdce 05be ec6b 81bd
000000d0: 6247 b43b bd37 c63d fb13 3d3e 3ba4 12bc
000000e0: f540 91be d139 25bc 917d a5bd 775b 1b3e
000000f0: 7dfd b13d 2f07 d5bd 06b8 ba3d 2f70 3bbd
00000100: d492 f93c 2d2b 9e3e 4ce9 d6be 7d81 fabd
00000110: 3b1e 053c 73b2 643e b4ad d1bd 7259 e33b
00000120: 0c25 923d 66a1 bfbd bc1d 9a3d 23da a03e
00000130: 89dd eabd c4a1 e73d 3e71 46bd 2c5b 2b3b
00000140: cabb 273e cb62 aa3d 1d34 6dbd 7710 22bd
00000150: a79b c43d d56c c3bd 0fe0 ecbc 2adb f1bd
00000160: 9307 0cbe 15f0 703d cebe 8dbd 50b9 1f3d
00000170: 9f96 1f3e 8327 9abd f3cd 02be 72e8 d3bd
00000180: 3754 6f3e 2c4c 153c b6a5 debc 6e36 5f3e
00000190: 56ae 54be 3156 af3c 5318 103e 3faf 0cbe
000001a0: 5aa0 4a3d b8b2 8cbe 7a21 09bd 04f4 60bd
000001b0: 70b1 c53e c4bd 3bbe 66e6 eabd 2ab7 a0bd
000001c0: 9e3d a5bd 078b 0bbe 7f72 c93a 8a82 bf3d
000001d0: c0e9 1fbd d1c8 6c3c b6c5 43be 0181 703d
000001e0: 0cf6 833e df3d 20bd e5ad 073e 19a8 033d
000001f0: db9a 7cbd 3c76 383e 3e66 fbbd f9b2 d33c
00000200: 1e9d 33be 03a2 76be 35b9 413e 16cc 573e
00000210: 56b7 70be 5dd2 0ebd e55e d8bd 0105 99bd
00000220: 042f 993e 745d 3ebe c2bb 8d3d 69ed 5b3b
00000230: 7870 963d 9304 1c3e 7a2a 3e3e cdc2 05be
00000240: da15 a4be 692d 1c3e b874 8a3d 43f6 5bbe
00000250: e472 69be 3f2f 0b3e 07da 76be 839e 123d
00000260: dec5 91be 5754 983d 36b0 7cbe 21ac 46be
00000270: bb16 dcbe 4815 453e b755 68be e840 7fbd
00000280: 9491 273e 8bc3 be3d 3815 7bbe 804e aebd
00000290: aac3 823e e10e 27be f4b8 81be 74dd 043e
000002a0: 5133 b3be a9b8 c03c e413 efbd 8e21 febe
000002b0: b8af afbd 1908 8abc 5b87 c83d 13d7 443d
000002c0: 0a3b 5d3c 2237 3ebe ff56 2fbe 11e8 ccbd
000002d0: 11df 9cbc d5b2 3dbe 84d9 8dbe 02b9 acbe
000002e0: 0c34 04be d178 84be 6434 37be 0ca6 683e
000002f0: 26c9 edbd 35ee e73d e676 71bd 06ff 11bd
00000300: 9cb1 a5bd 746d 8dbe fcd2 aa3d 2bdf 2f3e
00000310: 3e9f 943c 7cf3 0abd 0a88 a6bb 9cba c13d
00000320: 5429 e6be 729a 143d 4e6c 4dbe 02fe 683c
00000330: 2878 4dbe b8e4 eb3c f2b1 60be a88e 7cbe
00000340: ffb9 7bbe 9673 0ebe f8e9 5dbe 4cba 2b3c
00000350: a976 1c3e 6c5d 19bd 03e5 2ebe 2fca 3f3d
00000360: c2df 823d d2d5 8bbe 1a41 51bd ed5a d8bd
00000370: 3908 3b3e c85b 13be bb72 7a3d 510d b43d
00000380: 4309 a23d 673b 03bd b037 7b3e 3e5b 38bd
00000390: 9ea9 f3bd d717 c53d b499 fc3d 1cb6 a1bd
000003a0: 670a 03bd b22d 6f3e 62c5 db3d cccc edbd
000003b0: 0a30 8ebe 1124 823c d70b 89be f8cf 95be
000003c0: 1597 ea3d 7e85 6b3e bf31 4abe 2025 e2bd
000003d0: fefc 05bb 805c 42be d462 1e3f 69ed 92bc
000003e0: 2988 ebbc 820c a5b9 8b12 c13c b20a 3d3e
000003f0: d913 d2be 0a54 b9bc 7ae3 92be af23 1e3c
-0.025357448 -0.18699326 0.03541711 0.07327715 0.045247264 0.003114172 -0.28063503 -0.023173733
-0.12739833 0.07298487 0.40526217 -0.20745853 0.08335289 0.013349155 -0.0016831524 -0.008423686
-0.21618691 -0.038584467 0.1039234 0.01475951 -0.1250806 0.07818958 0.0772419 -0.2784938
-0.1255144 0.11049755 -0.14509268 -0.30887154 0.09664659 0.15262738 0.02093851 0.018902313
-0.028140234 -0.07633349 0.033097286 -0.1431041 -0.27118188 -0.13317373 0.03834434 -0.07554021
-0.084281124 0.04537748 0.069466546 -0.052252088 0.4007071 -0.27066362 0.0267351 -0.05017644
-0.12235996 -0.02537716 -0.13067241 -0.063194126 0.0055016736 0.096786 0.18464653 -0.008950288
-0.2836987 -0.010084585 -0.080805905 0.1517161 0.08690927 -0.10401761 0.09117131 -0.045761283
0.03046552 0.30892316 -0.41974866 -0.12231729 0.008124883 0.22333698 -0.10238209 0.006938153
0.071359724 -0.09356956 0.07525203 0.31416425 -0.11468036 0.11310151 -0.04844784 0.0026146872
0.1638023 0.083196245 -0.057911027 -0.039566483 0.09600001 -0.095422424 -0.028915433 -0.1180938
-0.13674764 0.05882271 -0.06921159 0.038995087 0.15584801 -0.075270675 -0.12773876 -0.1034707
0.23371969 0.009112399 -0.027178627 0.21798107 -0.20769629 0.021403404 0.14071779 -0.13738726
0.04946933 -0.27480102 -0.03347919 -0.05492021 0.38611937 -0.18334109 -0.11469726 -0.07847436
-0.08068393 -0.13627253 0.0015369206 0.0935107 -0.03904128 0.014452175 -0.1911839 0.058716778
0.25773656 -0.039121505 0.13249929 0.032142732 -0.06167112 0.18013853 -0.122753605 0.025842177
-0.17540404 -0.2408524 0.18918307 0.21073946 -0.23507437 -0.034868587 -0.10564975 -0.074716575
0.29918683 -0.18590337 0.069205776 0.0033558256 0.073456705 0.1523612 0.18570891 -0.13062592
-0.3204792 0.15251698 0.067605436 -0.2148066 -0.22797734 0.13592242 -0.24106608 0.0357957
-0.28471273 0.074379615 -0.24676594 -0.194016 -0.42986092 0.192464 -0.22688948 -0.06231776
0.16364127 0.093146406 -0.24519813 -0.085110664 0.25539905 -0.1631427 -0.2533642 0.12975103
-0.3500009 0.023525553 -0.11673716 -0.49634975 -0.085784376 -0.016849564 0.09791442 0.048056673
0.013502846 -0.18575719 -0.1712303 -0.10005201 -0.019149335 -0.1852525 -0.27705014 -0.337349
-0.1291048 -0.25873426 -0.17891079 0.22719592 -0.11610632 0.11324731 -0.05895128 -0.0356436
-0.08090517 -0.2762257 0.08341023 0.17174976 0.018142339 -0.03392361 -0.005082135 0.09459421
-0.44953406 0.036280103 -0.20060846 0.014220716 -0.20065367 0.028795585 -0.21942881 -0.24663794
-0.2458267 -0.1391128 -0.21671283 0.010481428 0.1527964 -0.03744261 -0.17079549 0.046823677
0.06390335 -0.2731157 -0.051087476 -0.10564218 0.18264855 -0.1439048 0.06114457 0.087916024
0.07911923 -0.032039072 0.24532962 -0.04500889 -0.11897586 0.09623688 0.12334004 -0.07896063
-0.031992342 0.23357275 0.10731007 -0.116113275 -0.27771026 0.015886338 -0.26766846 -0.2926023
0.11454598 0.23000142 -0.19745539 -0.11042237 -0.0020444985 -0.18980598 0.6186955 -0.017935472
-0.02875145 -0.00031480571 0.023568412 0.18461111 -0.41030768 -0.02262308 -0.28689176 0.009652062

fc2.bias f4 [64]
00000000: 2184 8d3c fd5d 953d 844f 883d 9f41 343c
00000010: 595f 023e 605f cbbd 5f3a d3bd 113e c83d
00000020: b430 0a3e 21e5 d83e 1932 b3bd 4c3a 2b3e
00000030: cf62 9e3e 3a31 a7ba 9a0a 593d ebe6 c43d
00000040: 6ba0 373d a6be a33d a096 71bd 3343 433e
00000050: ed57 003e 3846 083f 9e88 1bbe 314c 31be
00000060: 538f a1bd 4c4a 8cbd 576f 6f3c a195 1abc
00000070: 0a6d 13bd 2f78 bd3d 5cb9 713d 1c3a 95bd
00000080: 4827 1abe 5abf b23d ac17 a73c f59b 1d3c
00000090: 21aa 433d 1203 bbbd c895 163e 4c9d cebc
000000a0: 999b a6bd 31f8 053f 046d 903e c6ad 3fbd
000000b0: 93f0 f73b c85a cdbd 8b1d cdbd 7f55 15be
000000c0: 6e55 b2bd 6d01 d9bd d8c8 80be eea4 d23c
000000d0: 71ef 1fbe e13f a5bd f271 3e3d 242a d0bd
000000e0: eaf1 4dbe e2bc 08be 84c8 183b 36b2 9cbd
000000f0: 5c7f 64bd 7131 153e ea4a ac3d 9b5a 87bd
0.017274918 0.072933175 0.066557914 0.011001973 0.12731685 -0.09930301 -0.10313868 0.09777463
0.13495141 0.4236231 -0.0874979 0.16721457 0.3093476 -0.001275576 0.052988626 0.096143566
0.04483072 0.07995348 -0.058981538 0.19068603 0.12533541 0.53232145 -0.15188834 -0.17314221
-0.07888665 -0.068501085 0.014613948 -0.009435088 -0.03599266 0.09251439 0.059014663 -0.07286474
-0.15054047 0.08727904 0.02039703 0.009619703 0.04776967 -0.09131445 0.14705575 -0.02522149
-0.08135147 0.52331835 0.28208172 -0.046796583 0.0075665205 -0.10027081 -0.100154005 -0.14583395
-0.08707701 -0.10595975 -0.25153232 0.02571341 -0.15618683 -0.080688246 0.046495385 -0.10164288
-0.20111814 -0.13353303 0.0023312876 -0.076511785 -0.055785522 0.14569642 0.08412726 -0.066090785

fc3.weight f4 [4, 64]
00000000: fd88 5a3e fe36 603e 17a3 0c3e 41b5 343e
00000010: 8abc 5f3c 02d1 153e 5a88 1fbe f1d7 dbbe
00000020: 613c 413e 5f58 183e ae0e 20be d1a7 8d3d
00000030: afa0 2b3e 5157 623d dd24 e33e 086f 453c
00000040: fb3a a33e f1e8 9a3e f6d4 51bd aebe 573e
00000050: d96d 163e 7d05 533e b061 3ebb 6f6c 90be
00000060: 6457 f2be aa82 383e 8e05 85bd 3522 03bf
00000070: 1c5c 173d 8c27 833e a2b5 abbd 5071 823d
00000080: bcc4 78bd 1762 c73e 69f8 ce3e 9596 dc3d
00000090: 40ce 463e 668c 8e3e 3232 0f3e dc75 983d
000000a0: a17d 363e 73b1 3c3e 8960 6a3d 1d09 ae3d
000000b0: eee4 f63d e539 85be b668 573e 22aa a83d
000000c0: 64c4 58be efce 403d 1072 33be f554 5ebd
000000d0: 6900 41bd 9265 143e eedf d43d c13d 163f
000000e0: 711c 8dbe aad6 023e fbf2 e4bc 8af9 a6bd
000000f0: b810 52be 9ebf 253e 0981 2f3d 0800 fc3d
00000100: 8d0e 663e 8a8e 1c3e 7977 803e f2f9 cb3e
00000110: 39d7 0c3e 464d b03e 2189 4b3d d382 7dbc
00000120: fd33 bc3c 6175 db3d 8f6c c73c 6a18 0cbd
00000130: 4471 7e3d 5958 123e 14e3 a53e 1f33 c83d
00000140: 2074 86bc dd4e 813e d8bf 47be 86cb 333e
00000150: cd66 e63e 0637 523e adc5 3b3b c312 16be
00000160: d2eb c5bd c97c 49be ee64 833d 0d5a 19be
00000170: b4fc de3c 256b 903e 66e9 e53e afd9 aebb
00000180: bafb 2cbe b908 a63e dfc6 a03e 3f42 e93b
00000190: 3203 3c3e 9b9d 033d e423 1e3e f24b 163d
000001a0: 76ef 4a3e 3cc4 603e 03a7 c93d 1e6f 78bc
000001b0: 1b3a 843e 9746 05be db85 713e 1941 2c3e
000001c0: 1483 ccbd cdd3 1bbe fad2 97be a4ae a93c
000001d0: 3ea2 90bb 8fc9 863e be9d 3f3e 5f26 d43e
000001e0: bea7 13be 799e 11be c004 713c fa6d acbe
000001f0: 6867 f4bd 74f2 023e a5f7 10bd 1043 cabd
00000200: 24a9 443e d1df 273e a074 d7be ecd9 193f
00000210: f40f 703e d632 f5bd 64b7 93be 919d 90be
00000220: d056 5f3e 30fe 2f3e bfe4 833d afa1 963e
00000230: 115b 643e f68f 0a3e 9354 bf3e 1b35 533e
00000240: 0986 113a 0e52 a83d 4e76 4cbe 5558 423d
00000250: 100a c13e 4b15 853e 321d 20be cd0b d33d
00000260: de83 d9be 2b1b 87be a317 3ebe eeb0 963d
00000270: 1e08 cd3d 65ff 833e 2382 983e ed9c 2b3e
00000280: 871e bb3c 735b f83d b892 fb3e feb9 0e3e
00000290: 173a 763d 7427 cd3e 9759 ba3e 7417 673e
000002a0: 8e92 c03e 8450 383e 7bc1 9b3d 115a a73e
000002b0: a3b0 f13d 0a4e 2fbe 0a4b 403e 2112 9cbe
000002c0: efb0 56be 4473 abbc 83d7 54be bcac c13e
000002d0: 3a82 9bbd dde4 743d 301f 963e ab76 c63d
000002e0: dc1d 31be 456f a93d 6de8 45be 3fa7 cebe
000002f0: 6233 5dbe e537 493e 7ca5 9bbe bb9f bdbd
00000300: 90c1 463e 9f7f e53d de1d 34be b89c 82be
00000310: f648 f3bd d23a 563e 45f9 11be 7f65 5e3d
00000320: c787 d23d a73a 323e 6446 783e 3fec 48be
00000330: c0e8 463e fdc5 8d3e 7014 d13e edd5 303d
00000340: 723a 193f edfb 243e a360 d33d d975 963d
00000350: 2ba9 50bd dbb1 393e 4127 cdbc f1ff c5bc
00000360: aa2b eabe ec41 323e 8514 20be 5e4d 813d
00000370: 2a94 223f e37e d23c 7a69 70bc dde4 b03e
00000380: 26c8 9dbe 724d e33b 083b cebb c455 683e
00000390: 7144 913d 3331 fb3d 342c 3f3e 0737 9b3e
000003a0: 1bb6 3c3e 2cee 603e a02c 773e 367f 1bbf
000003b0: ac70 ce3e e30e c4bd 1f5f e23e 4b9b 923e
000003c0: 7190 49bc 0396 11be b628 11bd 53a5 083e
000003d0: ebfe a2be 7459 fc3e bfb1 103e 6caa d03e
000003e0: 805d 8fbe b4af dcbe 8281 2bbf 2bae 0dbf
000003f0: bb8c d1bd 7ad7 a53a 1867 51be 4952 a83e
0.2134132 0.21895978 0.13734089 0.17647268 0.013655791 0.14630511 -0.15579358 -0.42938188
0.18870689 0.14877461 -0.156306 0.06916774 0.16760515 0.055259053 0.44364062 0.012050398
0.31880936 0.30255845 -0.051228486 0.21068832 0.14690341 0.20607562 -0.0029049926 -0.28207728
-0.473323 0.18018594 -0.064952 -0.5122407 0.036953077 0.2561611 -0.08384253 0.06369269
-0.060734496 0.38942024 0.40423897 0.10770909 0.19414616 0.2784149 0.13983992 0.07444355
0.17821361 0.18427067 0.05722097 0.08497832 0.120553836 -0.26020733 0.21036038 0.08235575
-0.21168667 0.047072347 -0.1752398 -0.05428024 -0.04711953 0.14491871 0.10394274 0.5868798
-0.27560762 0.127772 -0.027947893 -0.081530645 -0.2051419 0.16186377 0.042847667 0.123046935
0.22466488 0.1528875 0.2509115 0.3983913 0.13753976 0.34433955 0.049691323 -0.015473085
0.022974009 0.107157476 0.024343757 -0.03420297 0.062119737 0.14291514 0.3239981 0.097753756
-0.016412795 0.2525548 -0.19506776 0.17558107 0.45000306 0.20528802 0.002865176 -0.14655595
-0.0966412 -0.19676508 0.06415735 -0.14975758 0.027220108 0.28206745 0.4490463 -0.0053360085
-0.16892901 0.3242853 0.31401727 0.007118493 0.18360594 0.032132726 0.15443379 0.03669352
0.1981791 0.21949857 0.09846308 -0.015163211 0.2582558 -0.13015209 0.23586218 0.16821708
-0.09985939 -0.15217514 -0.2965315 0.020713158 -0.004413872 0.26325652 0.18712518 0.41435525
-0.14419457 -0.14220609 0.014710605 -0.33677655 -0.11933786 0.12787801 -0.035392422 -0.098760724
0.19205147 0.16393973 -0.42081165 0.6009815 0.23443586 -0.11972587 -0.28850853 -0.28245214
0.2181046 0.17186809 0.06440114 0.2942023 0.22300364 0.13531479 0.37369213 0.20625727
0.0005551284 0.08218776 -0.19967005 0.04744752 0.3770299 0.25992808 -0.15636137 0.10304985
-0.4248342 -0.26387915 -0.18563704 0.073579654 0.10011314 0.25780788 0.29786786 0.16759081
0.022841705 0.121268176 0.49135375 0.13938138 0.060113993 0.40069163 0.36396477 0.2256754
0.37611812 0.17999464 0.07605263 0.32685903 0.11801269 -0.17119613 0.18778625 -0.3048258
-0.20965932 -0.020928986 -0.20785336 0.37827098 -0.07593198 0.059788574 0.2932067 0.09690603
-0.17296547 0.08273176 -0.19326945 -0.40361974 -0.21601632 0.19650228 -0.30399692 -0.09258982
0.19409776 0.112059824 -0.17589518 -0.25510192 -0.118791506 0.20920876 -0.14255245 0.054296013
0.10279804 0.17405187 0.24245602 -0.1962137 0.19424725 0.27690116 0.40835905 0.043172766
0.59854805 0.16111727 0.10321166 0.073466964 -0.05094258 0.18134253 -0.025043132 -0.024169894
-0.45736438 0.1740796 -0.15632828 0.06313585 0.6350733 0.02569527 -0.014673585 0.3454961
-0.30816764 0.0069367224 -0.006293658 0.22688967 0.07093132 0.122652434 0.18669206 0.3031542
0.18428843 0.21965855 0.24138117 -0.60740983 0.40320337 -0.09573152 0.44213197 0.28634104
-0.012302504 -0.14217381 -0.035439216 0.13344316 -0.31835112 0.49286997 0.14130305 0.40755022
-0.28001022 -0.431028 -0.6699449 -0.55343884 -0.1023192 0.0012652718 -0.20449483 0.3287528

fc3.bias f4 [4]
00000000: 71f2 9e3e 297c 8a3e 4fa0 463e 3b02 4c3e
0.31044343 0.27047852 0.1939709 0.19922726

fc4.weight f4 [4, 64]
00000000: 2804 5fbd 64aa bcbd 809e dc3b e421 c2bd
00000010: 20e5 bcbb d021 8cbc e23d c6bd ec27 67bd
00000020: d8cc 5f3d 00c8 12bd 32f2 e1bd 8e45 d03d
00000030: 0ca1 1fbd 10d5 763c 40de cd3d e8f0 7e3d
00000040: c6eb cebd 3e1f e23d c4b8 0ebd 2c9b 023d
00000050: acef 633d 7cb6 323d 24fa ae3d 540e 67bd
00000060: cc40 be3d acbb a23d 7285 e0bd 30e4 3ebd
00000070: c63b dd3d 8402 bebd daa3 e7bd 8a1a 9e3d
00000080: c46a 343d 008c 603c d623 cc3d 20b0 c93b
00000090: 649e f93d 96e2 a9bd 8803 dcbd 30ae debc
000000a0: 9cdf f83d 18e1 dabd e43a 533d 481a 033d
000000b0: 5ccd 58bd f4f1 d1bd 9063 563d ac02 403d
000000c0: c043 56bb 804e 4a3d 96fe 8b3d 524e b4bd
000000d0: 0a4b ddbd 4047 aabc 705e 93bc e0a9 44bd
000000e0: d4c1 063d 5a73 c4bd 04c2 f83d 7010 cebc
000000f0: c8ff 8ebd d09e a3bc 10b6 cabd a484 ddbd
00000100: ac2c 143d 7c82 0cbd 18a1 8abd 3420 6c3d
00000110: 5afa c73d 10a2 653c d823 7fbd e64e 8b3d
00000120: a452 30bd 0c02 6dbd 98a5 c7bc 68d4 f8bc
00000130: dc23 f73d 10c7 b7bc 807f e6bd 549a 22bd
00000140: 1cd3 3b3d 0c65 5d3d 04bb abbd 2455 b4bd
00000150: 00ae 11bd f0f5 023c f0ac d2bd 0cb5 6b3d
00000160: a82f c0bc 2eeb 943d 5098 183d f867 a3bc
00000170: a0d3 38bc b863 1d3d 0808 85bd f0ba 04bd
00000180: a852 6a3d 3a7d e4bd 20dc cbbc 7827 d53c
00000190: d405 84bd 7862 723d 98a0 7d3d a875 94bc
000001a0: 3083 24bd 88cd 773d e0be e63b 7af2 c5bd
000001b0: e28a 933d d403 fc3d 8019 db3d f437 8dbd
000001c0: 42ac ed3d 0860 55bd c6fd c1bd aa52 b73d
000001d0: e487 b4bd 684e eb3d ace4 fa3d 4a0f acbd
000001e0: 8689 a93d 7844 c3bc 0420 05bd f05a 9b3c
000001f0: 9c61 413d a43c aebd ae0a fb3d 3060 b33d
00000200: 2ae6 93bd 34c6 713d 00cd b53c 40b0 8c3d
00000210: 80c3 3ebb d835 2d3d c417 0f3d 323e ef3d
00000220: 485a 903c caaa d03d 606b a93c 44ea 243d
00000230: 9016 64bc d06d 5ebc 0a68 c0bd f212 f63d
00000240: ba81 8abd 44fd 853d a042 ec3c 8a03 a63d
00000250: d849 f2bd a00f 3fbc f058 f5bd 0082 c9bd
00000260: f4cc 343d a0e8 f1bc b2fc aa3d ccfa be3d
00000270: 008e a039 dc08 18bd f492 b13d 0c16 f43d
00000280: d08d 773c 76a4 d5bd 900e 563d 18eb aabc
00000290: 329f bcbd 9870 dc3c c08b 3f3b 00cb f23a
000002a0: 86b0 fe3d 0ef1 813d 709c a13d 802e 883a
000002b0: 6079 cabc 20fd 3f3d dc8a bfbd 2ceb f13d
000002c0: 6089 7e3c 56f4 edbd a4d3 93bd 9ce4 763d
000002d0: c051 ec3c 88e2 7c3d 8873 fcbd 009e 21ba
000002e0: fe87 983d a06b 8d3d a071 de3b c81b fdbd
000002f0: f0b9 df3d eca8 443d 3400 483d 424b 9a3d
00000300: f44c 973d 6056 67bc 9a90 a93d 72f7 ad3d
00000310: e8a3 fd3c 6c43 c5bd f4db b23d a4d6 7abd
00000320: aa51 da3d 4a73 9fbd 3021 0dbc 24f7 45bd
00000330: 082c 8cbd acde 28bd befd a43d 9827 293d
00000340: e0e2 3cbc 4a9b cdbd 06d2 8dbd b463 913d
00000350: a42b 6fbd 7266 c5bd e668 8cbd b033 2bbd
00000360: 8888 63bd 467a 873d 001b c4ba 46a3 f13d
00000370: 76aa ebbd b689 80bd 5816 2a3d 42f5 9c3d
00000380: b83f 52bd 00ce 4c3d c205 8dbd 280c 9bbd
00000390: 3cfe 8b3d 606a f9bb fc56 bbbd 606d 9ebb
000003a0: 244e e13d 80ca e93c e8ec ccbc 0880 b9bc
000003b0: e891 98bd 909e 913d 005f 073b 4c40 84bd
000003c0: 8057 ed3b 8c41 1e3d 2071 ad3b 107e 27bc
000003d0: 28a6 f0bd c0f3 76bb 04cb 23bd 80ca d1ba
000003e0: a241 9dbd 002e 413d a680 9ebd 1072 25bd
000003f0: 2863 6bbd 58e0 80bd 006e e93a 68d3 63bd
-0.054447323 -0.09212187 0.006732762 -0.094791204 -0.0057646185 -0.017105967 -0.09679772 -0.056434557
0.054638714 -0.035835266 -0.11032523 0.101695165 -0.038971946 0.0150654465 0.100521564 0.062241465
-0.10103564 0.11041115 -0.034844175 0.031886265 0.05564849 0.043631062 0.08543804 -0.05641015
0.09289703 0.07945952 -0.10962953 -0.046604335 0.108024165 -0.092778236 -0.11310549 0.07719906
0.044047132 0.013705254 0.09967773 0.006155029 0.12188414 -0.08295171 -0.10742861 -0.027182668
0.12152025 -0.106874645 0.051569834 0.032007486 -0.05293022 -0.10251227 0.052341044 0.046877548
-0.003269419 0.04939127 0.06835668 -0.08804001 -0.10805328 -0.020785928 -0.017989367 -0.048013568
0.032899693 -0.09592314 0.121463805 -0.025154322 -0.0698238 -0.019973189 -0.09898007 -0.10816315
0.036175415 -0.034304127 -0.067690074 0.0576479 0.09764548 0.0140156895 -0.062290043 0.06802158
-0.043047562 -0.05786328 -0.024370953 -0.03037472 0.120673865 -0.022433788 -0.112547874 -0.03969796
0.045855626 0.054051444 -0.0838528 -0.08805302 -0.03556633 0.007993206 -0.102868915 0.057545707
-0.023460224 0.072714195 0.03725463 -0.019947037 -0.011280924 0.038425177 -0.064956725 -0.03240484
0.057207733 -0.111566976 -0.024885237 0.026019797 -0.06446424 0.05917594 0.061920732 -0.01812251
-0.040164173 0.060498744 0.007041797 -0.09665389 0.07204224 0.12305418 0.10698223 -0.06895438
0.11605121 -0.052093536 -0.094722316 0.08951314 -0.088149816 0.11489564 0.12250647 -0.08401354
0.08278184 -0.02383636 -0.032501236 0.01896426 0.04721223 -0.0850766 0.12257896 0.08758581
-0.07221635 0.05902691 0.022192478 0.068695545 -0.0029108226 0.042287678 0.034934774 0.11681785
0.017621174 0.101888254 0.020681083 0.040262476 -0.013921395 -0.013575986 -0.09394844 0.12015332
-0.06763025 0.06542447 0.028840363 0.08106144 -0.11830491 -0.01166144 -0.11979854 -0.09839249
0.04414077 -0.02952987 0.08348979 0.093251795 0.00030623376 -0.037117824 0.08670607 0.119182676
0.015109494 -0.10431759 0.05225998 -0.020864055 -0.092100516 0.026909158 0.0029227585 0.0018523633
0.12436013 0.06344806 0.07891166 0.0010389835 -0.02471608 0.04687226 -0.09352657 0.118124336
0.015535682 -0.11618869 -0.072181016 0.060276613 0.028847575 0.061739475 -0.12326723 -0.00061652064
0.074478135 0.069052935 0.0067884475 -0.123588145 0.10924137 0.04801266 0.04882832 0.075338855
0.073877245 -0.0141197145 0.08279534 0.08494462 0.030961946 -0.09632 0.08733359 -0.061239854
0.106601074 -0.077856615 -0.00861387 -0.048331395 -0.06844336 -0.04122798 0.0805621 0.041297525
-0.011528701 -0.10039385 -0.069248244 0.07099095 -0.05839123 -0.096386805 -0.06855945 -0.04179734
-0.05555013 0.06615119 -0.001496166 0.1179872 -0.11507122 -0.06276266 0.041525215 0.07663967
-0.0513303 0.050001144 -0.06885864 -0.07570678 0.06835601 -0.007611558 -0.0914745 -0.004834816
0.11001232 0.028538942 -0.02501531 -0.022644058 -0.074497044 0.071103215 0.002065599 -0.06457576
0.007243097 0.03863673 0.0052930266 -0.010222927 -0.11750442 -0.0037681907 -0.039988533 -0.0016005784
-0.07678534 0.04716301 -0.077393815 -0.04039198 -0.05746761 -0.0629279 0.0017809272 -0.055621535

fc4.bias f4 [4]
00000000: 709f 5dbd e0d9 573c 8430 573d 749e 73bd
-0.05410713 0.013174504 0.052536502 -0.059477285
